rate_model.tflite (tflite, 151852 bytes, 7 tensors)

arith.constant4 f4 [1, 32]
0	0x3dc49ab8	0.09599823
1	0xbe41d4d3	-0.18928842
2	0xbe9c36ac	-0.3051046
3	0xbea08072	-0.31347996
4	0x3e8ae31f	0.27126405
5	0xbe912fc9	-0.2835677
6	0x3dc77a0d	0.09740076
7	0x3ea2d08f	0.31799743
8	0x3e8d2f02	0.27574927
9	0x3e0db4d3	0.1383851
10	0xbd82bd78	-0.063837945
11	0xbdd8017a	-0.10547157
12	0xbe128b9c	-0.14311069
13	0xbebab282	-0.36464316
14	0xbe159191	-0.1460631
15	0x3eab106c	0.33410966
16	0xbdf3bd2f	-0.11901318
17	0x3e83e49a	0.25760347
18	0x3e9a987f	0.3019447
19	0xbe5acc78	-0.21367061
20	0x3e9222dd	0.28542224
21	0xbe3515bc	-0.17684072
22	0x3dfafcec	0.12255272
23	0x3e8f72dc	0.28017318
24	0x3e44bb3a	0.19212046
25	0x3eaa166e	0.33220237
26	0x3eb252c6	0.34828776
27	0x3dc50d80	0.096217155
28	0x3e57a0a3	0.21057372
29	0xbd9843e7	-0.07434826
30	0x3ec03275	0.37538496
31	0xbe0a9522	-0.13533452

arith.constant18 f4 [256, 16]
0	0xbcfa7cdb	-0.030577114
1	0x3e13de92	0.14440373
2	0xbcd06e98	-0.02544336
3	0x3d88ed04	0.06685832
4	0x3cb465e5	0.022021243
5	0x3e4cc6ba	0.19997683
6	0x3d12706e	0.035751753
7	0xbdfafb40	-0.122549534
8	0xbe0d132f	-0.13776849
9	0x3db0fa6b	0.086415134
10	0x3c564b9a	0.013079548
11	0xbc734106	-0.014847046
12	0xbbfbe5af	-0.0076872925
13	0x3e051268	0.12995303
14	0x3db76ad7	0.08955925
15	0x3d449df4	0.0480022
16	0x3e10bcd6	0.14134535
17	0xbdb7e0b6	-0.08978407
18	0x3d9b3d2b	0.07580026
19	0xbdf19843	-0.1179662
20	0x3d9d2be8	0.0767439
21	0x3db38e75	0.08767406
22	0xbe069248	-0.1314174
23	0xbd15b6d9	-0.03655133
24	0x3d0f6944	0.0350125
25	0xbdbed26d	-0.09317479
26	0xbdf92126	-0.12164526
27	0x3ba52da7	0.0050408426
28	0xbdbd1a7c	-0.09233567
29	0xbda0d182	-0.078524604
30	0xbe2f702e	-0.17132637
31	0x3d8aaa19	0.06770725
32	0xbd82f313	-0.06394019
33	0xbe3eca16	-0.18631777
34	0xbcc11797	-0.023570819
35	0x3d462d80	0.048383236
36	0xbde35ac1	-0.11101294
37	0xbe09689e	-0.13418815
38	0xbdb696db	-0.08915492
39	0xbbb16ac6	-0.0054143397
40	0xbd92230c	-0.07135591
41	0xbc1c946a	-0.009556869
42	0xbd7dfd81	-0.06200934
43	0xbccfcda3	-0.02536661
44	0x3e1bed04	0.15227133
45	0xbe03bfb6	-0.128661
46	0xbe33e2fd	-0.17567058
47	0xbd5e3fb2	-0.054259963
48	0x3e6d9aed	0.23203631
49	0xbd697707	-0.05699828
50	0xbc855a44	-0.016278394
51	0xbba5f89c	-0.005065037
52	0x3e10c4ed	0.14137621
53	0x3b350b36	0.002762509
54	0x3e04c557	0.12965904
55	0xbdbce803	-0.0922394
56	0xbe29dd63	-0.16588359
57	0xbd8680f9	-0.06567568
58	0x3c832d0d	0.016012693
59	0x3dd0dfa4	0.10198906
60	0xbda1bd61	-0.07897449
61	0x3e191b55	0.14951833
62	0x3db3ec07	0.08785253
63	0x3d806b00	0.06270409
64	0x3ce6c838	0.028171644
65	0xbc065872	-0.008199798
66	0x3e855a48	0.26045442
67	0x3d9acc75	0.07558528
68	0x3e2daff8	0.16961658
69	0x3d41c1c9	0.04730395
70	0x3d788624	0.0606748
71	0x3c316263	0.01082668
72	0x3cef2c92	0.029196057
73	0x3e185a87	0.14878283
74	0xbd77d89b	-0.060509305
75	0xbc7697bb	-0.015050824
76	0xbe21321c	-0.15741771
77	0x3e0372fb	0.1283683
78	0x3e1788b9	0.1479825
79	0xbcd32542	-0.025774602
80	0x3e5a2f37	0.21307074
81	0x3dcb6786	0.09931855
82	0xbcfe8620	-0.031069815
83	0xbe112c46	-0.14177045
84	0xbd6fac06	-0.058513664
85	0x3db3c89c	0.087784976
86	0x3d9559d8	0.07292527
87	0x3e1d06eb	0.1533467
88	0xbcfe31a3	-0.031029528
89	0x3dc3e8a0	0.09565854
90	0xbdd8c1e8	-0.1058386
91	0x3de42976	0.111407205
92	0xbd94c09b	-0.07263299
93	0x3dd133f7	0.1021499
94	0xbd0361dc	-0.032075748
95	0x3d402f6c	0.046920225
96	0x3cb8a775	0.022540787
97	0xbe06af49	-0.13152803
98	0xbd1f6139	-0.038911078
99	0xbb0d310f	-0.0021544134
100	0x3de515ef	0.11185824
101	0x3d984128	0.074343026
102	0xbe0c2310	-0.1368525
103	0x3d3e528b	0.046465438
104	0xbe0c971b	-0.13729517
105	0x3c9544e8	0.018221334
106	0xbdd571c2	-0.10422088
107	0x3e33ecc8	0.17570794
108	0x3db96515	0.09052483
109	0xbce2f7a8	-0.027705982
110	0xbcd4f661	-0.025996389
111	0x3c35006b	0.011047463
112	0x3d94eed3	0.072721146
113	0xbdea675a	-0.11445494
114	0x3dd45fd4	0.1036984
115	0x3d3d7206	0.04625132
116	0x3d4d6c34	0.05015202
117	0xbd6d16b3	-0.057882976
118	0xbd665f7a	-0.056243397
119	0x3ce7defc	0.02830457
120	0xbc0e2479	-0.008675688
121	0xbd6272e9	-0.055285368
122	0x3ce1a29e	0.027543362
123	0xbbb561b7	-0.00553533
124	0xbd275192	-0.040849276
125	0xbdda7f63	-0.10668828
126	0xbc985c7e	-0.018598791
127	0xbe26e3d7	-0.16297852
128	0xbe2d091e	-0.16898009
129	0xbbbf2c1d	-0.005834116
130	0x3dc3dd21	0.09563661
131	0x3db4ec0e	0.08834086
132	0x3dcf8f74	0.101347834
133	0xbde6f1fc	-0.112766236
134	0xbdc04b94	-0.093894154
135	0xbcfcdba9	-0.03086646
136	0xbdb5d785	-0.08878998
137	0xbe25c174	-0.16187078
138	0xbe25f826	-0.16207942
139	0xbcb91842	-0.022594575
140	0x3e0ac034	0.13549882
141	0xbdaa9e3c	-0.08330962
142	0xbb81b086	-0.003957811
143	0x3c950863	0.018192476
144	0x3e37839c	0.17921299
145	0x3eae6d18	0.34067607
146	0x3dc3d81f	0.09562706
147	0x3cfabda5	0.030608008
148	0x3db2bbbe	0.08727215
149	0x3dfb0817	0.122574024
150	0xbd4abf84	-0.04949905
151	0x3e2a3873	0.16623096
152	0x3dbb3e33	0.09142723
153	0x3e0ee8b5	0.13955958
154	0x3e050ed1	0.12993933
155	0x3de3ba3e	0.11119507
156	0xbe0a1c70	-0.1348741
157	0x3c226e47	0.0099139875
158	0xbcd48c92	-0.025945935
159	0x3e5e7078	0.21722591
160	0x3c8b471c	0.017001681
161	0xbd2d0ae4	-0.042246714
162	0x3d8ed578	0.0697431
163	0x3c814301	0.01577902
164	0x3e132fcd	0.14373703
165	0x3db40987	0.0879088
166	0xbe18637e	-0.14881703
167	0x3d8142d8	0.063115776
168	0xbd3b53cf	-0.045734223
169	0x3d907745	0.07053999
170	0xbc8c9a73	-0.01716349
171	0xbd832a86	-0.06404595
172	0x3c2a61ff	0.010399341
173	0x3d7bb544	0.061452165
174	0xbe051aba	-0.12998477
175	0x3dd9ac85	0.106286086
176	0xbd8796f4	-0.06620589
177	0xbdd3c62c	-0.10340533
178	0x3d2a5066	0.04158058
179	0xbd9c7bfb	-0.07640835
180	0x3ddef05f	0.10885691
181	0xbd006772	-0.031348653
182	0xbd119a8a	-0.03554777
183	0xbd696772	-0.05698342
184	0xbe3c54cc	-0.18391722
185	0xbcc8d653	-0.02451626
186	0x3bbf4939	0.0058375862
187	0x3dd10683	0.1020632
188	0xbda24552	-0.07923378
189	0xbdfacdbe	-0.122462735
190	0x3dd6cd8d	0.104884245
191	0x3ddf0e46	0.10891394
192	0x3d11191b	0.035424333
193	0x3dc21774	0.094771296
194	0x3e2d01c9	0.16895212
195	0xbaaa89bf	-0.0013011022
196	0xbd3a681c	-0.045509443
197	0x3e124f1e	0.14287993
198	0xbc151d7d	-0.009101269
199	0xbe191e85	-0.14953049
200	0xbe025b0d	-0.12730046
201	0x3df6f336	0.120581076
202	0xbcaac4df	-0.020845829
203	0x3d2bada5	0.041913647
204	0xbe18a5aa	-0.14906946
205	0xbe4cd651	-0.2000363
206	0x3e363c55	0.17796452
207	0xbd3d3564	-0.046193495
208	0x3db30f5e	0.087431654
209	0xbd5aa9c3	-0.053384554
210	0x3e00b6ce	0.12569734
211	0x3e1633e8	0.14668238
212	0xbdac13cc	-0.084022135
213	0xbe0f45e2	-0.13991502
214	0xbdc6cc94	-0.09706989
215	0xbdb2d608	-0.087322295
216	0xbd6e3f2d	-0.058165718
217	0x3e09e036	0.13464436
218	0x3d6f0468	0.05835381
219	0x3d980efd	0.07424734
220	0xbc764bc1	-0.01503271
221	0x3cc0bb89	0.023526924
222	0x3dd3b77b	0.103377305
223	0xbd6766c0	-0.056494474
224	0xbdf2b481	-0.11850835
225	0xbc0e2048	-0.008674689
226	0xbdfba315	-0.12286965
227	0xbd8ad741	-0.06779338
228	0xbe1ee991	-0.15518786
229	0xbe131e26	-0.1436697
230	0x3d832f7a	0.0640554
231	0xbd38b54f	-0.045094784
232	0x3d812fca	0.06307943
233	0xbc54cdc6	-0.012988513
234	0x3dc8323a	0.09775205
235	0xbddc7277	-0.1076402
236	0x3c0814cf	0.008305742
237	0xbdc22347	-0.09479385
238	0xbcfeb912	-0.031094108
239	0xbde6dfc5	-0.112731494
240	0x3dc4b492	0.096047536
241	0x3d1ac70d	0.037787486
242	0xbd9027ae	-0.07038818
243	0x3d72353c	0.0591328
244	0xbaf28974	-0.0018504099
245	0xbd26ebab	-0.040752094
246	0xbd193e0c	-0.037412688
247	0x3c833af3	0.01601932
248	0x3d87d877	0.06633084
249	0x3c8cf716	0.017207664
250	0x3dadc525	0.08484868
251	0xbdaa975f	-0.08329653
252	0xbd910051	-0.070801385
253	0x3b6d5bf6	0.0036218143
254	0xbe2507f0	-0.16116309
255	0xbdaac512	-0.083383694

arith.constant19 f4 [256, 64]
0	0xbb522d97	-0.003207063
1	0x3dd07345	0.10178236
2	0xbd403187	-0.046922233
3	0x3e03073a	0.12795725
4	0xbd0951ff	-0.033525463
5	0xbd9a5a4a	-0.075367525
6	0x3e0f2adc	0.13981193
7	0x3cae66e4	0.021289296
8	0x3d738f91	0.059463087
9	0xbcbe9e37	-0.023268802
10	0xbbacc7c0	-0.0052728355
11	0x3bbd2906	0.0057727126
12	0xbaeb5777	-0.0017955144
13	0xbd184043	-0.03717066
14	0xbe0fe24a	-0.14051166
15	0xbcae7a2a	-0.021298487
16	0x3a003839	0.00048911903
17	0x3de4e979	0.11177344
18	0xbe5f813d	-0.21826644
19	0xbd662073	-0.05618329
20	0xbc99a54c	-0.018755578
21	0xbdfdf473	-0.124001406
22	0xbb252412	-0.0025198502
23	0x3dc2729b	0.094945155
24	0x3d8bcdbb	0.06826349
25	0xbd913ff4	-0.07092276
26	0xbda0a0fa	-0.07843204
27	0xbcb9ec31	-0.022695633
28	0xbd484179	-0.048890565
29	0x3da1e787	0.079054885
30	0xbd15b0e1	-0.036545638
31	0x3d6f032b	0.05835263
32	0x3d9098d0	0.07060397
33	0xbcb5e3df	-0.022203384
34	0x3d847665	0.064678945
35	0xbdd11e33	-0.10210838
36	0x3df3eaa9	0.11909992
37	0xbe0cc75f	-0.13747929
38	0x3d07162c	0.03298013
39	0xbd3555c5	-0.04427125
40	0xbc15afdf	-0.009136169
41	0x3e24b23b	0.16083615
42	0xbcd511a5	-0.02600939
43	0xbcda0668	-0.026614383
44	0x3d4fc38e	0.050723605
45	0xbc411cdb	-0.011786665
46	0xbe140454	-0.14454776
47	0xbdaecd4f	-0.08535253
48	0xbd2c580d	-0.04207616
49	0x3e04a77b	0.12954514
50	0xbe13052c	-0.14357442
51	0xbd966fdd	-0.07345555
52	0x3dbf7083	0.09347632
53	0xbc49bdcd	-0.012313318
54	0x3de8db38	0.11369938
55	0x3e124e9b	0.14287798
56	0xbde84ea5	-0.11343125
57	0x3e7c3a07	0.2463151
58	0x3d706d73	0.05869813
59	0xbd7d1c22	-0.061794408
60	0x3d34c5ae	0.044133835
61	0xbd247b15	-0.040156443
62	0x3d727a93	0.059198927
63	0xbbaa9762	-0.0052060345
64	0x3d89bee1	0.067258604
65	0xbbe67d65	-0.007033991
66	0x3dc01528	0.09379035
67	0x3db7365a	0.089459136
68	0xbdcf1421	-0.10111261
69	0x3ce1cc8c	0.027563356
70	0xbddb2d83	-0.1070204
71	0x3d302b0e	0.04300981
72	0x3df301a3	0.118655466
73	0xbd3d5281	-0.04622126
74	0xbc0c106a	-0.008548835
75	0xbcc790a0	-0.024360955
76	0xbd8a6a0b	-0.06758507
77	0xbd84037d	-0.06445978
78	0x3d85120c	0.06497583
79	0xbb891339	-0.0041831997
80	0xbc0596d0	-0.008153632
81	0xba14853c	-0.00056656054
82	0xbdcb8531	-0.099375136
83	0xbc5f9f1c	-0.0136487745
84	0xbe38d9ad	-0.18051787
85	0x3d1094a6	0.035298012
86	0xbd8aaa35	-0.06770746
87	0x3ce3a98c	0.027790807
88	0x3d01e544	0.031712785
89	0x3d00551e	0.031331174
90	0xbd105d57	-0.035245266
91	0x3d8f6033	0.070007704
92	0xbc9a3d39	-0.018828021
93	0x3d7025d4	0.058629826
94	0x3d87352d	0.06601939
95	0x3bae7777	0.0053243
96	0xbb2c11fc	-0.0026255837
97	0x3d9270bb	0.07150408
98	0x3cc06e15	0.023489991
99	0xbd8b2942	-0.06794979
100	0xbb43e458	-0.0029890742
101	0xbcd33d5a	-0.02578609
102	0xbd9f57cd	-0.077804185
103	0xbd8441ba	-0.06457849
104	0xbb8e35a4	-0.0043398906
105	0x3ced7fef	0.028991668
106	0xbcc6a368	-0.02424784
107	0x3ca3b351	0.019982966
108	0xbc580af1	-0.013186202
109	0x3d360663	0.044439685
110	0xbe1b26ab	-0.1515147
111	0x3d913062	0.070893064
112	0xbc26bfc8	-0.01017756
113	0x3cf669fc	0.030079834
114	0xbd24a3f3	-0.040195417
115	0x3bc037a1	0.0058660065
116	0x3ccd5d92	0.025069032
117	0xbcf32d9a	-0.02968483
118	0xbc8b45bc	-0.017001025
119	0x3d2362e0	0.039889216
120	0xbb924234	-0.0044634584
121	0x3c132c24	0.008982692
122	0x3d06fd09	0.032956157
123	0xbd971ca7	-0.07378512
124	0xbd1ed7f6	-0.038780175
125	0x3cdfe08a	0.027328748
126	0x3d780480	0.060551167
127	0xbd5a4067	-0.053284075
128	0x3cc594cd	0.024118805
129	0x3c4b4c87	0.012408382
130	0x3de78ad4	0.11305776
131	0x3d45ef73	0.04832406
132	0x3b679271	0.0035335089
133	0x3dab6837	0.08369487
134	0xbd2c2126	-0.0420238
135	0xbd864e69	-0.06557924
136	0x3abdcd69	0.0014480773
137	0x3d02e73e	0.03195881
138	0x3d959c51	0.073052056
139	0x3d891389	0.06693179
140	0xbdb59912	-0.088670865
141	0x3c9b97f9	0.018993365
142	0x3c90afa4	0.017661877
143	0xbd91ff5e	-0.071287856
144	0x3d6003c3	0.054691087
145	0x3ce61ae9	0.028089004
146	0x3e034b3d	0.1282167
147	0x3d3de85a	0.046364166
148	0xbc4782aa	-0.012177149
149	0xbdf2a9e6	-0.11848812
150	0xbd7b86d5	-0.061407883
151	0x3df7a7f1	0.12092579
152	0x3d86b90c	0.06578264
153	0xbe10ecf7	-0.14152895
154	0xbccc4192	-0.02493361
155	0xbcfd1865	-0.030895421
156	0xbd2dffcf	-0.042480286
157	0xbd883d7b	-0.066523515
158	0x3d231868	0.039818197
159	0xbdbdabea	-0.09261306
160	0xbd93325b	-0.07187339
161	0x3d68e9e0	0.056863666
162	0x3d48cb59	0.049022052
163	0xbcce6ca9	-0.025198298
164	0x3cc33f7b	0.02383398
165	0xbdc4b468	-0.09604722
166	0xbd407cd6	-0.046994053
167	0x3dd91c6f	0.106011264
168	0x3db5714d	0.08859501
169	0xbd84920b	-0.06473168
170	0x3dc586d8	0.0964486
171	0x3d6df946	0.058099054
172	0xbc881323	-0.016610688
173	0x3e094052	0.13403443
174	0xbde683ec	-0.11255631
175	0x3b8cb8d9	0.0042944965
176	0x3cc4baf2	0.024014924
177	0xbd9e09ef	-0.077167384
178	0xbc74c632	-0.014939832
179	0xbd083eca	-0.033263005
180	0xbd92f2cc	-0.07175216
181	0x3c23edfe	0.010005472
182	0xbdd1705b	-0.10226508
183	0x3d865a13	0.06560149
184	0x3d4405bf	0.047857042
185	0xbbe4ed6a	-0.00698631
186	0x3d711f97	0.058868017
187	0xbdb45479	-0.088051744
188	0xbdcd8ab1	-0.10036219
189	0x3d7f9a2e	0.062402897
190	0xbc69cf07	-0.014270551
191	0x3c3f3d67	0.011672354
192	0x3d8796c0	0.0662055
193	0xbe0a50da	-0.13507405
194	0xbd66562c	-0.056234524
195	0xbe090cbd	-0.13383766
196	0x3d337a74	0.043817952
197	0xbd521867	-0.051292803
198	0xbdb5a958	-0.088701904
199	0x3db3ff4d	0.08788929
200	0xbd248d75	-0.040173966
201	0xbd7ceaa4	-0.06174721
202	0xbcf3e37e	-0.029771563
203	0xbcf59e00	-0.029982567
204	0xbe0a2989	-0.13492407
205	0x3d2bd7d5	0.04195388
206	0x3c298df5	0.010348787
207	0x3d4647ea	0.048408426
208	0xbd1c5e4d	-0.03817587
209	0x3cae9014	0.021308936
210	0x3dbcdedc	0.092221946
211	0x3d11e991	0.035623137
212	0xbb2f5e08	-0.0026758928
213	0xbc3b7973	-0.01144253
214	0xbaacd429	-0.0013185787
215	0xbba1ea5d	-0.0049412684
216	0x3dd12aeb	0.10213264
217	0x3dd2460d	0.102672674
218	0x3c3e4091	0.0116120735
219	0xbc3b1f44	-0.0114210285
220	0xbd266ce9	-0.04063121
221	0x3d490cc5	0.049084444
222	0x3cca32f8	0.024682507
223	0x3df67f6c	0.120360225
224	0xbdda142c	-0.10648379
225	0xbdaca2c1	-0.0842948
226	0xbcac1def	-0.021010367
227	0x3d86769e	0.06565593
228	0xbd07fbb1	-0.033199016
229	0x3d046518	0.032322973
230	0xbc6b1891	-0.014349119
231	0x3c5db077	0.013530842
232	0x3cb4b4f7	0.022058947
233	0xbb107f9e	-0.0022048722
234	0xbb53eb57	-0.0032336318
235	0x3ddde282	0.108342186
236	0xbd01b6b7	-0.03166839
237	0x3d0c9de3	0.03433026
238	0x3b93022a	0.004486342
239	0x3d7dee67	0.061994936
240	0x3d23ce79	0.03999183
241	0x3c94959d	0.018137747
242	0xbd0b93b2	-0.0340764
243	0xbc32dc7d	-0.010916826
244	0xbd88eeb9	-0.06686158
245	0xbc92415f	-0.017853437
246	0x3c3a14d1	0.011357502
247	0xbd89c155	-0.06726328
248	0xbcd6f219	-0.026238488
249	0xbc941b27	-0.018079353
250	0x3bc37bc2	0.005965681
251	0xbb56c3dc	-0.003277055
252	0xbc23916c	-0.009983402
253	0xbdad02c9	-0.08447797
254	0x3de1ca38	0.11024898
255	0xba729c8f	-0.00092548964

sequential_1/lstm_1/while/lstm_cell_1/BiasAdd/ReadVariableOp f4 [256]
0	0x3beec6b2	0.00728687
1	0xbcb7fca0	-0.022459328
2	0xbcbb2a5e	-0.02284735
3	0x3a3e7901	0.0007265956
4	0x3dafa5cc	0.08576545
5	0x3c925407	0.017862333
6	0xbcd60e97	-0.026130004
7	0xbce1fdf4	-0.027586915
8	0xbca5e256	-0.020249527
9	0x3db20d28	0.086939156
10	0xbc5f4b7a	-0.013628835
11	0xbcd728e6	-0.02626462
12	0x3d1c9ec9	0.038237367
13	0xbc37a397	-0.011208436
14	0xbc4d78c2	-0.012540998
15	0xbb9c8ae5	-0.0047772997
16	0x3d155468	0.03645745
17	0xbc96c652	-0.018405113
18	0xbd51e979	-0.051248048
19	0x3ce704fa	0.028200615
20	0xbc996a62	-0.018727485
21	0x3e80241f	0.25027558
22	0x3c2ab70e	0.01041962
23	0xbd367786	-0.04454758
24	0xbc974e59	-0.018469976
25	0xbc75fb98	-0.015013598
26	0xbd01ab5f	-0.031657573
27	0xbc7d6dcd	-0.015468073
28	0xbc606ec7	-0.013698286
29	0xbc8324e4	-0.016008802
30	0xbce32435	-0.027727226
31	0xbd232bde	-0.039836757
32	0xbc743ffe	-0.014907835
33	0xbca6d0ea	-0.02036329
34	0xbc7bb453	-0.015362817
35	0xbd020ff4	-0.031753495
36	0xbc0395ba	-0.008031303
37	0xbc980ec7	-0.018561734
38	0xbd0edcf4	-0.034878686
39	0xbd68cb6f	-0.056834634
40	0xbd2cb3ec	-0.042163774
41	0xbc3d1059	-0.011539542
42	0xbcfe503b	-0.031044116
43	0xbd05fd86	-0.032712482
44	0xbd87d588	-0.06632525
45	0x3ec747fb	0.38922104
46	0xbd0a4f48	-0.033767015
47	0xbc67433c	-0.014115151
48	0x3b87dc22	0.004146115
49	0x3cb063d5	0.021531979
50	0xbba0fce1	-0.004912958
51	0xbc24f3bf	-0.010067879
52	0xbcc55a5f	-0.024090944
53	0xbd17ce25	-0.03706183
54	0x3de62e2c	0.11239275
55	0xbca56cad	-0.020193422
56	0xbca21454	-0.019785084
57	0x3d295645	0.04134204
58	0xbcb253d8	-0.021768495
59	0x3b1ecb46	0.0024230047
60	0xbd1b7267	-0.0379509
61	0xbcaca06e	-0.021072593
62	0xbcca0f9d	-0.024665648
63	0x3c2979e6	0.010344004
64	0x3f6d0e3e	0.92599857
65	0x3f785b50	0.9701433
66	0x3f798ded	0.97482187
67	0x3f737a08	0.9510808
68	0x3f602470	0.875556
69	0x3f735345	0.95048934
70	0x3f766bf3	0.9625847
71	0x3f74234f	0.95366377
72	0x3f79afd0	0.97533894
73	0x3f5b3e6b	0.8564212
74	0x3f6fa4d7	0.936109
75	0x3f757742	0.958851
76	0x3f622bdb	0.8834817
77	0x3f6d1540	0.9261055
78	0x3f7a2cb6	0.97724473
79	0x3f6fc570	0.9366064
80	0x3f728570	0.9473486
81	0x3f6b2e56	0.9186758
82	0x3f7217a5	0.9456733
83	0x3f5d9e0a	0.86569273
84	0x3f7929e5	0.9732955
85	0x3f4e10b4	0.80494237
86	0x3f6dcf15	0.9289411
87	0x3f739a86	0.9515766
88	0x3f762a0e	0.9615792
89	0x3f6db60f	0.92855924
90	0x3f775581	0.96614844
91	0x3f7d398b	0.9891593
92	0x3f6b57e6	0.91931
93	0x3f7015fe	0.9378356
94	0x3f78c397	0.97173446
95	0x3f709e94	0.9399197
96	0x3f781c42	0.9691812
97	0x3f76c085	0.9638751
98	0x3f6ec686	0.9327167
99	0x3f715b48	0.9427991
100	0x3f6f0097	0.93360275
101	0x3f7a402c	0.9775417
102	0x3f764a7b	0.962074
103	0x3f720cfb	0.94551057
104	0x3f7442ad	0.9541424
105	0x3f64b081	0.89331824
106	0x3f6b0407	0.9180302
107	0x3f76f604	0.9646914
108	0x3f6d00a2	0.9257909
109	0x3f49813d	0.78712827
110	0x3f7890dc	0.9709604
111	0x3f77b668	0.96762705
112	0x3f77f080	0.9685135
113	0x3f6edc20	0.93304634
114	0x3f7b591a	0.98182833
115	0x3f6e4a05	0.93081695
116	0x3f701932	0.93788445
117	0x3f715156	0.94264734
118	0x3f6a82db	0.9160592
119	0x3f6fffc9	0.9374967
120	0x3f79f1b3	0.9763443
121	0x3f68362d	0.90707666
122	0x3f78f5d7	0.9725012
123	0x3f7a436f	0.97759145
124	0x3f6ccd38	0.9250064
125	0x3f77d771	0.9681311
126	0x3f6fcb78	0.93669844
127	0x3f78134e	0.96904457
128	0xbd839e27	-0.064266495
129	0xbb6831eb	-0.0035430144
130	0xbd0fb0ce	-0.035080723
131	0x3d44c250	0.048036873
132	0xbce91c7c	-0.028455965
133	0x3dcab491	0.098977216
134	0xbb7779f2	-0.0037761894
135	0x3d19201f	0.03738415
136	0xbcb7ea7a	-0.022450674
137	0x3d8863f8	0.066596925
138	0xbb33df0f	-0.0027446186
139	0x3db05289	0.08609492
140	0x3d7350ea	0.059403338
141	0xbc8c1fff	-0.0171051
142	0xbc265016	-0.01015093
143	0xbbd343f7	-0.006447311
144	0x3d5b6172	0.053559728
145	0xbce136ef	-0.027492015
146	0x3d5b3129	0.05351368
147	0x3d94b389	0.07260806
148	0x3d204612	0.039129324
149	0xbd8833e9	-0.06650526
150	0xbd0e4a46	-0.0347388
151	0xbcdeb350	-0.027185112
152	0xbd169e79	-0.036772225
153	0xbd8b6e00	-0.0680809
154	0xbc86ecb4	-0.01647029
155	0xbd57aee5	-0.052657027
156	0xbcfbdb13	-0.030744111
157	0xbc9e6ec8	-0.019339934
158	0x3c358fe0	0.011081666
159	0xbca92e8a	-0.020652074
160	0x3d0769ac	0.03305976
161	0x3cf0293e	0.02931654
162	0x3d8b3431	0.06797064
163	0xbba7c873	-0.005120331
164	0xbcb15144	-0.021645196
165	0x3d68183f	0.056663748
166	0xbc8d0d66	-0.017218303
167	0x3c3f07f4	0.011659611
168	0xbd39536f	-0.045245584
169	0x3c67fcb7	0.014159373
170	0x3d0366cf	0.032080468
171	0xbd0b5282	-0.034014232
172	0xbcd749e8	-0.026280358
173	0xbd87e308	-0.066351
174	0x3d3491cb	0.04408435
175	0xbc7fb1a0	-0.015606314
176	0xbc52ef1b	-0.01287439
177	0xbd874206	-0.0660439
178	0x3d18172e	0.03713148
179	0x3d6d95be	0.058004133
180	0x3cc32b4f	0.023824362
181	0xbd12c095	-0.03582819
182	0xbd6ea4e6	-0.05826273
183	0xbd1c9d93	-0.038236212
184	0x3c7b1669	0.015325167
185	0x3d1e2219	0.038606737
186	0xbd35fcbe	-0.044430487
187	0x3d8547a4	0.06507805
188	0x3b3ab433	0.0028488755
189	0x3d136e31	0.03599376
190	0xbdbe1394	-0.09281078
191	0x3d8cb6e3	0.068708204
192	0x3c202f27	0.009776867
193	0xbcc94fbe	-0.024574157
194	0xbce019dc	-0.02735608
195	0x3c027a5a	0.007963741
196	0x3d9c31eb	0.076267086
197	0x3c9da09f	0.01924163
198	0xbcfb35aa	-0.030665237
199	0xbcf8e1fb	-0.030381193
200	0xbc9d31c1	-0.019188764
201	0x3d9e6626	0.07734327
202	0xbcb0d663	-0.021586603
203	0xbcbc2136	-0.022965055
204	0x3d25af8a	0.04045061
205	0xbc894828	-0.01675804
206	0xbcc05d21	-0.023481907
207	0xbc1bdd78	-0.0095132515
208	0x3d04e78a	0.032447375
209	0xbc858166	-0.016297054
210	0xbd4bf8e3	-0.049797904
211	0x3d06b4d8	0.03288731
212	0xbcbf7487	-0.023370994
213	0x3e77027e	0.24122044
214	0x3b902218	0.0043985955
215	0xbd3897dc	-0.0450667
216	0xbc3c7ed1	-0.011504845
217	0xbc67dbcb	-0.014151524
218	0xbd0ea985	-0.034829635
219	0xbc89cde6	-0.016821813
220	0xbc8305b8	-0.015993938
221	0xbca4865c	-0.020083599
222	0xbcc169c3	-0.023610001
223	0xbd15f292	-0.036608286
224	0xbc7b2d00	-0.015330553
225	0xbc89e900	-0.016834736
226	0xbc31a42a	-0.010842362
227	0xbd0590d0	-0.032608807
228	0xbc9e6936	-0.019337278
229	0xbcacd17d	-0.021095986
230	0xbd04ec93	-0.032452177
231	0xbd6db13b	-0.05803035
232	0xbd2b1cae	-0.041775398
233	0xbbbecb12	-0.0058225477
234	0xbcee555f	-0.029093442
235	0xbcf4050f	-0.029787568
236	0xbd76e59d	-0.06027757
237	0x3eb6c963	0.3570052
238	0xbd107546	-0.03526809
239	0xbc64bd0d	-0.013961089
240	0xba7229d3	-0.00092377997
241	0xbb71fba2	-0.0036923666
242	0xbbe65273	-0.0070288717
243	0xbbe03889	-0.006842677
244	0xbcc3ea48	-0.023915425
245	0xbd2f499b	-0.042794805
246	0x3dbcd9d5	0.09221236
247	0xbc5b2112	-0.013374584
248	0xbc949152	-0.0181357
249	0x3d318f0c	0.04334931
250	0xbccfe009	-0.025375383
251	0xba7a03d1	-0.0009537312
252	0xbd206df9	-0.039167378
253	0xbc9d96d6	-0.019236963
254	0xbcd46191	-0.02592543
255	0x3b64b4c8	0.0034897793

arith.constant23 f4 [128, 64]
0	0xbd3d31e0	-0.046190143
1	0xbba34cab	-0.004983505
2	0x3da03153	0.07821908
3	0x3dbcbe29	0.09215958
4	0x3e37beca	0.17943874
5	0x3d1d7a9c	0.038447008
6	0xbddfa2bc	-0.10919711
7	0x3df2e243	0.11859562
8	0x3e054d13	0.13017683
9	0x3dd2d4bf	0.10294484
10	0xbd964551	-0.0733744
11	0x3c46da49	0.012137004
12	0x3d6ac8b3	0.057320308
13	0xbd531235	-0.051531035
14	0x3e0f0616	0.13967165
15	0xbd399c3f	-0.045315024
16	0x3db38111	0.08764852
17	0x3d7b131c	0.06129752
18	0x3e1c4c04	0.15263373
19	0x3e15b93b	0.14621441
20	0xbe225b2b	-0.1585509
21	0xbbc11d97	-0.00589342
22	0x3d6ec9ff	0.058298107
23	0x3e0f0dab	0.13970058
24	0xbde5777e	-0.11204432
25	0x3cb60ae3	0.022221988
26	0x3d091bb7	0.033473697
27	0x3ce9b4ee	0.028528657
28	0xbbcd28c8	-0.006260965
29	0x3e29183a	0.16513148
30	0xbd03f798	-0.032218546
31	0xbc2579b1	-0.010099814
32	0xbdb7be4b	-0.089718424
33	0xbd6bce35	-0.0575697
34	0xbdca7aff	-0.09886741
35	0x3cbf314b	0.023338934
36	0x3e050290	0.12989259
37	0xbcc48e15	-0.023993531
38	0x3daf5727	0.08561545
39	0x3d9b8027	0.075928025
40	0xbddcb883	-0.1077738
41	0xbd2aed12	-0.041729994
42	0xbd93a77b	-0.07209679
43	0xbded5223	-0.11587932
44	0xbe01ea25	-0.12686975
45	0x3d5902c8	0.052981168
46	0xbd862cb6	-0.06551497
47	0xbe087d3d	-0.13329025
48	0xbddd6604	-0.108104736
49	0xbe24c8c7	-0.16092215
50	0x3e0b3808	0.13595593
51	0xbe1ef085	-0.15521438
52	0x3dda4758	0.10658139
53	0xbdb83dc4	-0.08996156
54	0xbe1cf4cf	-0.15327762
55	0x3bc79d15	0.0060917237
56	0xbd8aa815	-0.0677034
57	0x3dee9d08	0.11651045
58	0xbd9001b8	-0.07031578
59	0xbe15b0fc	-0.14618295
60	0xbdd48bcd	-0.103782274
61	0xbe1953ce	-0.14973375
62	0x3df3c6dd	0.119031645
63	0xbae0ec59	-0.0017160281
64	0x3ddc014d	0.107424356
65	0xbd79b552	-0.060963936
66	0xbdbe3b79	-0.09288687
67	0x3ddcc234	0.10779229
68	0xbdb3bcab	-0.0877622
69	0xbbe24d80	-0.0069062114
70	0xbc5ca74c	-0.013467621
71	0x3d9dd6a0	0.07706952
72	0xbd5a2f73	-0.053267907
73	0xbe35c2a7	-0.17750035
74	0x3d581e5f	0.05276334
75	0xbcdb0f36	-0.026740652
76	0xbe853a86	-0.26021212
77	0x3dd41ab6	0.10356657
78	0x3e4a1e04	0.19738013
79	0x3ddd4b33	0.10805359
80	0xbcc67bca	-0.02422895
81	0x3e0e1d23	0.13878302
82	0x3dc7da6d	0.09758458
83	0xbe28109d	-0.16412587
84	0x3dec725e	0.11545251
85	0x3e5894ff	0.21150587
86	0x3d3c6973	0.045999
87	0x3dd1b1ad	0.10238967
88	0x3d4e2261	0.050325755
89	0xbe212d05	-0.1573983
90	0x3d15973b	0.036521178
91	0x3d4be7ad	0.04978149
92	0x3e59c36c	0.21265954
93	0x3e19dec8	0.1502639
94	0x3de772d8	0.113012016
95	0xbe09d106	-0.13458642
96	0xbe665dd0	-0.22496724
97	0xbe284038	-0.16430748
98	0xbe1302a5	-0.14356478
99	0x3d03ab1f	0.032145616
100	0xbdb2d2f7	-0.087316446
101	0x3d159458	0.036518425
102	0xbdfc1c60	-0.123100996
103	0x3b81c906	0.0039607314
104	0x3dc86f04	0.097867996
105	0xbe38183c	-0.17977995
106	0x3e24cb77	0.1609324
107	0x3e13e46a	0.14442602
108	0x3e09ba55	0.13449986
109	0x3dac7231	0.08420218
110	0xbe3eda9f	-0.18638085
111	0xbde5647e	-0.11200808
112	0xbdc5c302	-0.096563354
113	0xbdd6244e	-0.10456143
114	0x3c916c83	0.017751938
115	0x3e0c81c6	0.1372138
116	0x3e1de245	0.15418346
117	0x3d0afb99	0.03393135
118	0xbd0be2a9	-0.034151707
119	0xbe51fd37	-0.2050675
120	0x3de714a1	0.112832315
121	0xbe2c960a	-0.1685411
122	0x3d1c43ad	0.03815048
123	0x3cbf4aab	0.023351034
124	0xbda0ffde	-0.07861303
125	0x3e16525e	0.14679858
126	0xbe0d05ec	-0.1377179
127	0x3dedf6eb	0.116193615
128	0xbcb3b34a	-0.021936078
129	0xbe29191b	-0.16513483
130	0xbafc25f1	-0.0019237382
131	0x3dc9d07c	0.09854218
132	0x3ce770d0	0.028252035
133	0x3b7dc694	0.0038723098
134	0xbb49d6a4	-0.0030798102
135	0x3dd0a29a	0.10187264
136	0x3d0569a4	0.03257145
137	0xbdfcde44	-0.12347081
138	0x3db82f32	0.08993377
139	0x3e0baac0	0.13639355
140	0x3d36a024	0.044586316
141	0xbe0b4096	-0.13598856
142	0xbdd88ea1	-0.10574079
143	0xbe018842	-0.12649634
144	0x3c515a57	0.012777886
145	0xbc5a26df	-0.013314932
146	0xbde31713	-0.110883854
147	0xbd042747	-0.03226402
148	0xbe0539f0	-0.13010383
149	0xbdc1438e	-0.09436713
150	0x3cad0775	0.02112172
151	0xbe43426b	-0.19068305
152	0xbd44947f	-0.04799318
153	0x3dcca3f7	0.09992211
154	0xbd5bb180	-0.053636074
155	0xbcb6bbb5	-0.022306303
156	0xbd8c60ac	-0.06854376
157	0x3e47a8cd	0.19497986
158	0x3e09127f	0.13385962
159	0xbce5ca95	-0.0280507
160	0xbb7515a8	-0.0037396941
161	0x3d9fd128	0.07803565
162	0xbbc6837c	-0.0060581546
163	0x3db1afec	0.086761326
164	0x3e5e8d2e	0.21733543
165	0xbdf9f27d	-0.12204454
166	0xbd68e2a9	-0.056856785
167	0xbd932483	-0.071846984
168	0x3dae2592	0.0850326
169	0xbdcb5418	-0.09928149
170	0xbd80f93f	-0.0629754
171	0x3d78792e	0.06066244
172	0x3d0efa27	0.034906533
173	0xbd908bf6	-0.070579454
174	0xbd220734	-0.03955765
175	0xbd9c516a	-0.07632716
176	0xbe0fc54b	-0.14040105
177	0x3e12b5eb	0.14327209
178	0xbe0b28d0	-0.13589787
179	0xbd1f95dc	-0.038961276
180	0xbe0273b3	-0.12739448
181	0x3da57397	0.08078688
182	0xbe242593	-0.16029958
183	0x3cce922f	0.02521619
184	0x3e46932a	0.19392076
185	0xbe441c4b	-0.19151418
186	0x3dae04e3	0.08497026
187	0xbe0a49b6	-0.13504681
188	0x3e063a6c	0.13108224
189	0x3e0e6576	0.13905892
190	0xbdb94e88	-0.09048182
191	0x3e4eaf3b	0.20184033
192	0xbe0a23fc	-0.1349029
193	0x3e28725e	0.16449878
194	0x3e141307	0.14460383
195	0x3ce5f22e	0.028069582
196	0xbd29ed3d	-0.041486014
197	0x3d898475	0.06714717
198	0x3e28197b	0.1641597
199	0x3c8ca571	0.017168732
200	0xbe422dda	-0.18962803
201	0xbe0a7cbd	-0.13524146
202	0xbd781740	-0.060569048
203	0x3d4cbbcf	0.049983796
204	0xbe7b2989	-0.24527563
205	0xbc482b86	-0.012217408
206	0xbda85423	-0.08219173
207	0x3ad04612	0.0015890023
208	0xbdb9ea68	-0.090779126
209	0x3b28b5ee	0.0025743204
210	0xbe439073	-0.19098072
211	0x3dbb5415	0.09146897
212	0x3e1a45c1	0.15065672
213	0x3d27ba9e	0.040949456
214	0xbe02926a	-0.12751165
215	0xbc22395b	-0.00990137
216	0x3e27eb9c	0.16398472
217	0xbde6c12a	-0.11267312
218	0x3b7a60c3	0.0038204647
219	0xbdb8adfc	-0.0901756
220	0xbd8cedf8	-0.068813264
221	0x3d89e528	0.06733161
222	0x3dbe0510	0.09278309
223	0xbda82645	-0.08210424
224	0x3da3ba33	0.07994499
225	0x3d8cb9f0	0.06871402
226	0xbe5508bd	-0.20804115
227	0x3d0a9608	0.033834487
228	0x3d4cee7f	0.050032135
229	0xbdba3aa3	-0.09093215
230	0xbe03c49b	-0.12867968
231	0x3d5bb36d	0.05363791
232	0x3e2d6ab2	0.16935232
233	0xbe78d0ef	-0.24298452
234	0x3cf21407	0.029550565
235	0xbdfed0b5	-0.124421515
236	0x3e21ea8d	0.1581213
237	0xbdaf58b1	-0.085618384
238	0xbe0884b8	-0.13331878
239	0x3e39c230	0.18140483
240	0xbdad0d7c	-0.084498376
241	0xbd2a7ef7	-0.04162499
242	0x3cd40ce1	0.025885047
243	0x3d705452	0.058674164
244	0x3d115a64	0.035486594
245	0x3e4ad2b2	0.19806936
246	0xbdb6e8df	-0.089311354
247	0x3e31e885	0.17373855
248	0xbdb085b9	-0.086192556
249	0x3e056225	0.1302572
250	0x3d1dd4c3	0.038532984
251	0x3dcc97c2	0.09989883
252	0x3e72fb43	0.23728661
253	0x3d1d8245	0.038454313
254	0x3e0b2844	0.13589579
255	0x3da6af7f	0.08138942

arith.constant24 f4 [128, 32]
0	0x3cd889c4	0.02643288
1	0x3d191239	0.037370894
2	0x3da75d06	0.0817204
3	0xbd054143	-0.03253294
4	0xbe14f915	-0.14548142
5	0xbd92d808	-0.07170111
6	0x3d05e516	0.032689176
7	0x3d946bc9	0.07247121
8	0x3b32857e	0.0027240212
9	0x3d9cb14a	0.07651003
10	0x3cf362c4	0.029710181
11	0xbe31fe26	-0.17382106
12	0x3cfe158c	0.031016134
13	0xbd28bd85	-0.041196365
14	0xbda07178	-0.078341424
15	0xbc1be7f6	-0.009515753
16	0x3c39fd37	0.011351875
17	0xbd8be2fd	-0.06830404
18	0x3cff01fe	0.03112888
19	0x3d23a53b	0.039952498
20	0xbdc53097	-0.096284084
21	0xbd272ad2	-0.04081232
22	0xbe0a2617	-0.13491093
23	0xbd289eba	-0.041167
24	0xbc40e14f	-0.011772468
25	0x3d71eda5	0.059064526
26	0x3e0d0670	0.13771987
27	0xbdbab641	-0.091167934
28	0x3d8c8dc6	0.06862979
29	0x3d60cf6c	0.054885313
30	0x3e2e449e	0.17018363
31	0xbd43fc75	-0.047848184
32	0xbcea8c99	-0.028631495
33	0xbc19789e	-0.009367136
34	0x3e07f415	0.13276704
35	0x3dae018c	0.08496389
36	0xbabc0d2f	-0.0014347191
37	0x3c9331bc	0.017968051
38	0x3d81ce5a	0.063381866
39	0xbdcd951f	-0.10038208
40	0xbdbb92fb	-0.09158894
41	0x3c3ce961	0.011530251
42	0x3c482535	0.012215902
43	0xbcc1e0d2	-0.023666773
44	0xbdba6857	-0.091019325
45	0xbd898c62	-0.06716229
46	0xbd625544	-0.055257097
47	0xbe115d21	-0.14195682
48	0x3d3654c9	0.04451445
49	0x3e15b6a6	0.14620456
50	0xbc9263d8	-0.017869875
51	0xbd7fa038	-0.062408656
52	0xbdb05fd9	-0.086120315
53	0x3d96308f	0.073334806
54	0x3d656346	0.056002878
55	0x3d13396c	0.035943434
56	0x3aa38e76	0.001247837
57	0x3d94637e	0.07245539
58	0x3deb8e4e	0.11501752
59	0x3ccd0b98	0.025029942
60	0xbd29cca3	-0.041454922
61	0x3e7764af	0.24159501
62	0x3d5dac94	0.05411966
63	0x3d3b58cc	0.04573898
64	0xbdb60d0b	-0.088892065
65	0xbda15c66	-0.07878952
66	0xbe3bb003	-0.18328862
67	0xbd70baf7	-0.058772054
68	0xbd00bed3	-0.031431984
69	0xbdaf3b46	-0.085562274
70	0xbd7dcc36	-0.06196233
71	0xbe203c5a	-0.15648022
72	0xbac5bbd5	-0.0015085886
73	0xbdada5b4	-0.08478871
74	0x3dc0b472	0.09409417
75	0x3d2d4a5c	0.042307243
76	0x3e37866e	0.17922375
77	0x3d03d280	0.03218317
78	0xbd05de08	-0.03268245
79	0x3af50de7	0.001869616
80	0x3d2685bd	0.040654887
81	0xbe09f491	-0.13472201
82	0x3cafc01e	0.021453913
83	0x3cae2a62	0.021260444
84	0xbd983465	-0.074318685
85	0x3e127830	0.1430366
86	0xbd10b22b	-0.035326164
87	0x3d6e0be9	0.058116827
88	0xbe00bfce	-0.12573168
89	0xbe217c47	-0.15770064
90	0xbcfb9383	-0.030709988
91	0xbce86ee7	-0.028373195
92	0x3cf67d4b	0.030089041
93	0x3d7d983c	0.06191276
94	0xbd641a10	-0.055688918
95	0xbd0f31da	-0.03495965
96	0xbda8c9ab	-0.0824159
97	0xbdd4285b	-0.1035926
98	0x3c71670d	0.014734042
99	0x3c92a819	0.01790242
100	0x3d522f2d	0.05131452
101	0xbe177685	-0.14791305
102	0x3e03d7d0	0.12875295
103	0xbd873138	-0.066011846
104	0x3e291d85	0.16515167
105	0x3a3d9701	0.0007232279
106	0xbc13d451	-0.009022788
107	0x3d3095d6	0.043111645
108	0x3d199685	0.037497062
109	0xbcaec4f2	-0.021334145
110	0xbe0d6ea2	-0.13811734
111	0xbbcdc022	-0.0062790075
112	0xbd86d49a	-0.06583519
113	0x3d6b618f	0.057466086
114	0x3cf6eb2e	0.03014144
115	0x3cb053e2	0.021524373
116	0x3e4422ae	0.19153854
117	0x3ba0a367	0.0049022916
118	0x3d72c4fc	0.05926989
119	0xbcf9e131	-0.030502887
120	0x3e090493	0.13380651
121	0xbd967a2f	-0.073475234
122	0xbcb7e6f0	-0.022448987
123	0x3ccbde2e	0.024886217
124	0x3e14c739	0.14529122
125	0x3e3566bc	0.17714971
126	0x3d546f96	0.05186423
127	0xbddf39cf	-0.10899698
128	0xbdec450a	-0.11536606
129	0xbbf56fb2	-0.0074901218
130	0xbc02b7ff	-0.007978438
131	0x3d832c85	0.06404976
132	0xbe1c18bf	-0.15243815
133	0x3e232056	0.15930304
134	0x3ce04989	0.027378814
135	0x3dd3fdeb	0.103511654
136	0xbd12c389	-0.035831008
137	0x3dd51074	0.10403529
138	0x3cd1600d	0.025558496
139	0xbdbe4199	-0.092898555
140	0x3ce2d3e2	0.027688924
141	0x3ddcfca7	0.10790377
142	0xbd92af7c	-0.07162377
143	0x3d003193	0.031297278
144	0xbe2d8afd	-0.16947551
145	0x3e0637df	0.1310725
146	0xbd5956de	-0.05306136
147	0xbcc276ce	-0.023738291
148	0xbd748419	-0.05969629
149	0x3e4a23fc	0.1974029
150	0x3d7544b1	0.059879962
151	0xbd8dd963	-0.06926229
152	0xbe44094d	-0.19144173
153	0xbe011c4c	-0.1260845
154	0xbdb0579f	-0.086104624
155	0x3d66ee1d	0.056379426
156	0x3d841e2f	0.064510696
157	0x3e00fbfc	0.12596124
158	0xbdae6441	-0.08515216
159	0xbd075831	-0.03304309
160	0xbe18afd0	-0.14910817
161	0xbb4d738d	-0.0031349391
162	0x3e0a4883	0.13504224
163	0xbc742bdf	-0.014903038
164	0xbdaa977f	-0.08329677
165	0x3d82a41d	0.063789584
166	0xbe89f7e8	-0.2694695
167	0x3d8f4f9f	0.069976084
168	0xbe7153e6	-0.23567161
169	0x3caf580e	0.021404292
170	0x3df60f83	0.120146774
171	0x3e11aff5	0.14227279
172	0x3ab781ec	0.0014000512
173	0x3c8b68ac	0.017017685
174	0x3d86a863	0.06575086
175	0xbe21745e	-0.15767047
176	0xbc15864d	-0.009126258
177	0x3d5c8edc	0.05384718
178	0xbbd2f7ac	-0.006438216
179	0xbd8ebfca	-0.069701746
180	0x3cab0ef1	0.020881148
181	0xbdb89885	-0.09013466
182	0xbe376d8f	-0.17912887
183	0x3d8206d1	0.063489564
184	0xbe172742	-0.1476107
185	0xbd62a9a9	-0.05533758
186	0x3d1ccd32	0.038281627
187	0x3cdb65e7	0.02678199
188	0xbcdc9b68	-0.026929572
189	0x3e4e2227	0.20130216
190	0x3db28f49	0.08718736
191	0x3cba8fe9	0.0227737
192	0x3dab6b25	0.083700456
193	0x3b896d0b	0.004193907
194	0xbd8bf257	-0.06833332
195	0xbd0b7afa	-0.034052826
196	0x3c9d4aaf	0.019200651
197	0x3c77b281	0.015118242
198	0x3d0046c6	0.031317495
199	0x3c943277	0.01809047
200	0x3e67db1d	0.22642179
201	0xbd6e08f0	-0.058113992
202	0x3d3ba5a0	0.04581225
203	0x3c807b35	0.01568375
204	0xbe13e1db	-0.14441626
205	0xbbfd6f80	-0.007734239
206	0x3dbb5ec3	0.09148934
207	0x3bf84aab	0.0075772605
208	0xbcfbc6b9	-0.030734407
209	0x3dda6bde	0.10665105
210	0x3b94c7e9	0.0045404327
211	0xbcd14448	-0.025545254
212	0xbe460dc6	-0.19341192
213	0x3e18df3a	0.14928904
214	0x3d4dffc4	0.050292745
215	0x3ccd2dd8	0.025046274
216	0x3c6f53f0	0.014607415
217	0xbddd89b7	-0.10817283
218	0x3da43f29	0.08019859
219	0xbe6e9598	-0.23299253
220	0x3d8c2726	0.068434045
221	0x3deb680b	0.11494454
222	0x3df51813	0.119674824
223	0xbd05c29d	-0.0326563
224	0xbdf99393	-0.12186351
225	0x3e0b185a	0.13583508
226	0x3d8dcfa6	0.069243714
227	0x3e8a6a6d	0.2703432
228	0x3c890643	0.016726619
229	0xbd2d1fd7	-0.042266693
230	0x3dd0ec1f	0.102012865
231	0x3d5e7dd9	0.054319236
232	0xbdae54f4	-0.08512297
233	0x3d6228f9	0.055214856
234	0x3dcba45d	0.09943459
235	0x3bd27d0a	0.006423597
236	0x3e17322a	0.1476523
237	0x3c98f5cd	0.018671894
238	0x3d38aa50	0.045084298
239	0xbe1696f0	-0.14706016
240	0x3d5c8e3e	0.05384659
241	0xbd1f734d	-0.03892832
242	0x3d7e3ba7	0.062068608
243	0xbbf9fa53	-0.007628718
244	0xbd4a3aa3	-0.049372327
245	0x3e155d5e	0.14586398
246	0xbd9931e6	-0.074802205
247	0xbe25e055	-0.16198857
248	0xbc52e7f0	-0.012872681
249	0xbd741a18	-0.059595197
250	0xbce4af5a	-0.027915645
251	0xbd4ff2c8	-0.050768644
252	0xbd5de153	-0.054169964
253	0x3d83ff17	0.06445139
254	0xbd0b84a9	-0.03406206
255	0x3d03fcc5	0.03222348

sequential_1/lstm_1_2/while/lstm_cell_1/BiasAdd/ReadVariableOp f4 [128]
0	0x3bdf5aee	0.0068162596
1	0xbce0381c	-0.027370505
2	0xbd3c4244	-0.045961633
3	0x382796f8	3.9956503e-05
4	0xbd41d792	-0.047324724
5	0xbd4af230	-0.049547374
6	0xbbb4ed98	-0.0055214874
7	0xbd4f74f5	-0.05064865
8	0xbd4a756c	-0.04942839
9	0xbccfd9af	-0.025372354
10	0x3a9005f7	0.0010988106
11	0xbc54ec37	-0.012995771
12	0xbba6c6ad	-0.005089602
13	0xbd4f7fcd	-0.05065899
14	0xbd70b052	-0.058761902
15	0xbd67c4c6	-0.056584142
16	0x3c965e97	0.01835565
17	0xbcf010d1	-0.029304894
18	0xbd178827	-0.03699508
19	0xbd3fc74e	-0.04682093
20	0xbd18f758	-0.03734526
21	0xbbf1f566	-0.00738399
22	0xbaf753d9	-0.0018869593
23	0xbd6e227a	-0.05813835
24	0xbd2e41de	-0.042543285
25	0xbd418c54	-0.047252968
26	0xbd459a98	-0.048243135
27	0xbcd7deba	-0.026351321
28	0x3d46530c	0.048419043
29	0xbb3d23c7	-0.0028860436
30	0xbd3630b7	-0.04448005
31	0xbc81b652	-0.015834007
32	0x3f7ade34	0.97995305
33	0x3f71dc26	0.94476545
34	0x3f6f483a	0.93469584
35	0x3f683eb3	0.9072067
36	0x3f6fbc3e	0.9364661
37	0x3f73e653	0.9527332
38	0x3f7f3b01	0.9969941
39	0x3f720552	0.9453937
40	0x3f691a02	0.9105531
41	0x3f7098ab	0.9398295
42	0x3f81549c	1.0103946
43	0x3f7d4bec	0.9894397
44	0x3f7cb7a3	0.9871771
45	0x3f73aaf7	0.95182747
46	0x3f6f9815	0.93591434
47	0x3f710189	0.9414297
48	0x3f7304ba	0.9492909
49	0x3f765d83	0.9623644
50	0x3f6d1dc5	0.9262355
51	0x3f74eaba	0.95670664
52	0x3f716c54	0.9430592
53	0x3f73b162	0.9519254
54	0x3f6fd501	0.93684393
55	0x3f6d35b8	0.92660093
56	0x3f760b66	0.9611114
57	0x3f6f5886	0.9349445
58	0x3f710eb6	0.9416307
59	0x3f794337	0.97368187
60	0x3f5de43c	0.86676383
61	0x3f7ccaf4	0.9874718
62	0x3f700665	0.9375976
63	0x3f7bb1d7	0.9831824
64	0x3d019087	0.031631973
65	0xbc9bf78e	-0.019038942
66	0xbc3b02c4	-0.011414234
67	0xbc26b135	-0.010174085
68	0x3b43dcc8	0.0029886235
69	0xbc3f82a5	-0.011688863
70	0x3ae80c46	0.0017703853
71	0x3a9eeca3	0.0012124967
72	0x3bc01eef	0.0058630626
73	0x3c346fcc	0.011012983
74	0x3b0d4681	0.0021556916
75	0xbc30cdd0	-0.010791257
76	0xbc22f7d4	-0.009946782
77	0x3b2dd8b2	0.0026526866
78	0xbc67ea88	-0.014155038
79	0x3bd19a03	0.0063965335
80	0xbc991b21	-0.018689694
81	0x3a2f4d3b	0.00066872285
82	0x3d226fd4	0.03965743
83	0xbba9efba	-0.0051860483
84	0xbbbb9b7c	-0.0057253223
85	0xbb2021f3	-0.0024434298
86	0x3c91cef1	0.017798873
87	0x3c003a24	0.007826362
88	0xb98c1312	-0.0002671709
89	0x3a109f19	0.00055168715
90	0x3c05faac	0.008177441
91	0x3c0b2dfe	0.008494852
92	0x3ce66325	0.028123448
93	0xbc9ea1bc	-0.01936423
94	0x3ccac97b	0.024754276
95	0x3b3d8693	0.0028919324
96	0x3abc2803	0.0014355186
97	0xbcd670b5	-0.02617679
98	0xbd44883d	-0.04798149
99	0xba240cb0	-0.0006257994
100	0xbd4c234d	-0.049838353
101	0xbd430ee3	-0.04762162
102	0xbc046fb3	-0.008083272
103	0xbd46ebd1	-0.048564736
104	0xbd520091	-0.05127007
105	0xbce374f0	-0.027765721
106	0x3a5fc200	0.0008535683
107	0xbc903058	-0.017601177
108	0xbc14ee7a	-0.00909006
109	0xbd529d50	-0.051419556
110	0xbd90b94f	-0.07066595
111	0xbd5e865a	-0.054327346
112	0x3c7dc5f8	0.015489094
113	0xbcf1ba6c	-0.029507838
114	0xbd1403ed	-0.036136556
115	0xbd411617	-0.047140207
116	0xbd0ec279	-0.034853432
117	0xbc8a741c	-0.016901068
118	0xbc919442	-0.01777089
119	0xbd7855c0	-0.060628653
120	0xbd377faf	-0.044799503
121	0xbd3fd6e9	-0.046835814
122	0xbd4a159b	-0.04933701
123	0xbd026fb6	-0.031844817
124	0x3d09cca8	0.03364244
125	0xbcb16438	-0.021654233
126	0xbd39605b	-0.045257907
127	0xbc8e2879	-0.017353283
